…
        "use_cuda = torch.cuda.is_available()\n",
        "device = torch.device(\"cuda\" if use_cuda else \"cpu\")\n",
        "model = Net().to(device)\n",
        "summary(model, input_size=(1, 28, 28))"
      ],
      "execution_count": 3,
      "outputs": [
        {
          "output_type": "stream",
          "text": [
            "----------------------------------------------------------------\n",
            "        Layer (type)               Output Shape         Param #\n",
            "================================================================\n",
            "            Conv2d-1            [-1, 8, 26, 26]              72\n",
            "       BatchNorm2d-2            [-1, 8, 26, 26]              16\n",
            "              ReLU-3            [-1, 8, 26, 26]               0\n",
            "           Dropout-4            [-1, 8, 26, 26]               0\n",
            "            Conv2d-5           [-1, 32, 24, 24]           2,304\n",
            "       BatchNorm2d-6           [-1, 32, 24, 24]              64\n",
            "              ReLU-7           [-1, 32, 24, 24]               0\n",
            "           Dropout-8           [-1, 32, 24, 24]               0\n",
            "            Conv2d-9            [-1, 8, 24, 24]             256\n",
            "             ReLU-10            [-1, 8, 24, 24]               0\n",
            "        MaxPool2d-11            [-1, 8, 12, 12]               0\n",
            "           Conv2d-12           [-1, 10, 10, 10]             720\n",
            "      BatchNorm2d-13           [-1, 10, 10, 10]              20\n",
            "             ReLU-14           [-1, 10, 10, 10]               0\n",
            "          Dropout-15           [-1, 10, 10, 10]               0\n",
            "           Conv2d-16             [-1, 16, 8, 8]           1,440\n",
            "      BatchNorm2d-17             [-1, 16, 8, 8]              32\n",
            "             ReLU-18             [-1, 16, 8, 8]               0\n",
            "          Dropout-19             [-1, 16, 8, 8]               0\n",
            "           Conv2d-20             [-1, 16, 6, 6]           2,304\n",
            "      BatchNorm2d-21             [-1, 16, 6, 6]              32\n",
            "             ReLU-22             [-1, 16, 6, 6]               0\n",
            "          Dropout-23             [-1, 16, 6, 6]               0\n",
            "           Conv2d-24             [-1, 16, 4, 4]           2,304\n",
            "      BatchNorm2d-25             [-1, 16, 4, 4]              32\n",
            "             ReLU-26             [-1, 16, 4, 4]               0\n",
            "          Dropout-27             [-1, 16, 4, 4]               0\n",
            "           Conv2d-28             [-1, 10, 4, 4]             160\n",
            "      BatchNorm2d-29             [-1, 10, 4, 4]              20\n",
            "             ReLU-30             [-1, 10, 4, 4]               0\n",
            "          Dropout-31             [-1, 10, 4, 4]               0\n",
            "AdaptiveAvgPool2d-32             [-1, 10, 1, 1]               0\n",
            "           Conv2d-33             [-1, 10, 1, 1]             100\n",
            "================================================================\n",
            "Total params: 9,876\n",
            "Trainable params: 9,876\n",
            "Non-trainable params: 0\n",
            "----------------------------------------------------------------\n",
            "Input size (MB): 0.00\n",
            "Forward/backward pass size (MB): 0.90\n",
            "Params size (MB): 0.04\n",
…
